artifacts/gesture_keras.tflite (tflite, 101928 bytes, 6 tensors)

arith.constant f4 [2, 128]
-0.21760407 -0.04468135 0.2537951 0.24073246 0.022394238 0.020224363 0.023669515 0.20038722
-0.21928984 -0.05183262 0.106413044 0.1362093 -0.13010176 -0.28519374 -0.122704715 0.18435195
0.09630104 0.123284325 -0.19078507 0.0069655078 0.050936814 0.22147146 -0.04143644 0.052327942
0.030247899 -0.10698185 -0.18937749 -0.2068228 0.24061751 0.21189228 0.037035182 -0.16492774
-0.087300986 0.1189218 0.15276538 0.101382285 0.07346761 0.074474454 -0.30152574 0.14030333
-0.07026811 0.27294287 0.14249486 -0.021350976 0.22508338 -0.10445126 0.028392712 -0.23533064
0.23206244 -0.1867166 0.20520934 -0.2723455 -0.17435265 0.1884752 0.108777225 -0.247012
0.11680366 0.19369054 -0.06469082 0.07021491 -0.13229714 0.23277847 0.031332202 0.20843333
-0.24344926 0.23622222 -0.033201434 0.09815129 0.06853508 0.049689323 0.19949844 0.066254646
-0.21394579 0.19543985 -0.06674248 -0.18896382 0.05747916 -0.2679277 -0.07565549 0.204841
-0.023359217 0.28312176 -0.09544348 -0.1570554 -0.1960868 0.054718725 0.18916659 0.031046312
-0.25435123 -0.044163894 0.068683624 0.1518481 -0.03948163 0.27107775 0.09717024 0.19051975
-0.17423229 0.21248291 -0.12954016 0.09831383 -0.20703876 0.0101681175 0.20338158 -0.121861055
0.017943071 -0.070728645 -0.14007185 0.14256974 0.17560089 0.27077514 -0.14437772 -0.33092612
-0.16861406 -0.21197902 0.19851373 -0.16804652 0.25005528 -0.025276262 -0.06760684 0.2561978
0.18252736 -0.25821465 0.08148482 0.20932268 0.10096312 -0.04303871 -0.20988938 -0.19028433
0.3629407 0.21627964 -0.16252998 0.12608238 -0.2577883 0.27352422 0.10342274 -0.23786221
0.13985784 0.19108512 -0.11824209 -0.26244006 0.067977965 0.089874126 0.12920931 -0.1781894
-0.22012882 0.004352844 0.25963145 -0.19803171 0.05745304 -0.08076932 0.2694257 -0.119053364
0.29193652 0.24209155 0.03988791 -0.061184645 -0.26050204 -0.07208254 -0.08489248 0.09257623
0.14456387 -0.17788148 -0.0974041 -0.21809708 -0.16570453 0.04892609 0.3290103 -0.027755858
0.10144937 -0.12623084 0.0743034 0.255203 -0.06799301 0.07112561 0.16892946 0.25298902
-0.20707834 0.20178129 -0.17072052 0.2097889 0.17286013 -0.1242799 -0.00884707 0.29870364
-0.1276984 0.03378215 0.0941779 -0.11667006 0.024450753 0.028488128 -0.18264143 -0.22943585
0.009348856 -0.14278589 -0.19292453 0.295346 0.048829865 -0.2723617 -0.11718149 -0.010580691
0.21353261 -0.15044576 -0.20000802 0.027119149 -0.30397248 0.14928995 0.06454384 -0.15570486
-0.2673916 -0.1699821 0.34795168 0.21503995 0.228865 -0.2070835 -0.16608858 0.23518553
0.058535986 0.2021681 -0.09021498 0.039083615 0.2630345 -0.07756231 -0.077688865 0.006202598
0.057228066 -0.1733301 0.031893678 0.22711611 0.118661545 -0.27830118 0.089825444 0.21123853
-0.18292977 -0.32229164 0.18917397 0.0030763978 -0.09589945 -0.27010542 -0.24656768 0.16109233
0.016643012 0.26572737 -0.13135377 0.22664472 -0.11825244 -0.17164662 -0.14549491 -0.029029261
-0.31455052 0.022277234 0.19662875 -0.18633384 -0.012166492 0.28496337 -0.027159465 0.27629572
00000000: 9ad3 5ebe cb03 37bd 6ef1 813e 9282 763e
00000010: 1f74 b73c 90ad a53c 92e6 c13c 4f32 4d3e
00000020: 848d 60be 714e 54bd 15ef d93d 737a 0b3e
00000030: 6539 05be ea04 92be 9c4c fbbd c2c6 3c3e
00000040: 7b39 c53d 7e7c fc3d 295d 43be ea3e e43b
00000050: 1fa3 503d 6ac9 623e 42b9 29bd d355 563d
00000060: 71ca f73c 4d19 dbbd 2cec 41be 5bc9 53be
00000070: 7064 763e 4afa 583e 34b2 173d d1e2 28be
00000080: dcca b2bd 468d f33d 876e 1c3e 84a1 cf3d
00000090: 3076 963d 1086 983d 9561 9abe adab 0f3e
000000a0: bae8 8fbd 2bbf 8b3e 2cea 113e 3ee8 aebc
000000b0: 427c 663e 8bea d5bd d597 e83c 84fa 70be
000000c0: c7a1 6d3e a332 3fbe 6622 523e df70 8bbe
000000d0: 8089 32be a5ff 403e 98c6 de3d b7f0 7cbe
000000e0: c236 ef3d d056 463e 9f7c 84bd d6cc 8f3d
000000f0: e778 07be 7b5d 6e3e 3256 003d 8c6f 553e
00000100: c34a 79be 3de4 713e 3afe 07bd 8b03 c93d
00000110: 1f5c 8c3d 0887 4b3d 5249 4c3e 84b0 873d
00000120: 9b14 5bbe 6221 483e 48b0 88bd bb7f 41be
00000130: 456f 6b3d d22d 89be 44f1 9abd d7c1 513e
00000140: d45b bfbc 56f5 903e df77 c3bd 21d3 20be
00000150: faca 48be be20 603d e3b4 413e d654 fe3c
00000160: 533a 82be 33e5 34bd 00aa 8c3d 117e 1b3e
00000170: 7db7 21bd b4ca 8a3e 3101 c73d 9c17 433e
00000180: f369 32be 1f95 593e 2da6 04be c358 c93d
00000190: f801 54be 2d98 263c 4343 503e 4a92 f9bd
000001a0: 59fd 923c 2eda 90bd ff6e 0fbe cdfd 113e
000001b0: b8d0 333e 0aa3 8a3e c1d7 13be 266f a9be
000001c0: 2aa9 2cbe 0711 59be 2f47 4b3e 6314 2cbe
000001d0: 3f07 803e 2a10 cfbc 7475 8abd 5c2c 833e
000001e0: 74e8 3a3e b634 84be 83e1 a63d af58 563e
000001f0: c1c5 ce3d 5c49 30bd 3eed 56be e5d9 42be
00000200: 5dd3 b93e 6978 5d3e 426e 26be bd1b 013e
00000210: d4fc 83be 5e0b 8c3e 4dcf d33d 2792 73be
00000220: e536 0f3e d1ab 433e e928 f2bd 8b5e 86be
00000230: 0838 8b3d ed0f b83d 724f 043e 4877 36be
00000240: 7369 61be 4da2 8e3b 6aee 843e d3c8 4abe
00000250: e153 6b3d 636a a5bd 2af2 893e 40d2 f3bd
00000260: b478 953e d9e6 773e 8161 233d c09c 7abd
00000270: 8660 85be 03a0 93bd 1cdc adbd 9b98 bd3d
00000280: 8d08 143e 9026 36be cd7b c7bd d754 5fbe
00000290: 73ae 29be b966 483d 0a74 a83e 4160 e3bc
000002a0: b0c4 cf3d a842 01be 622c 983d f8a9 823e
000002b0: eb3f 8bbd 4eaa 913d d8fb 2c3e c787 813e
000002c0: 580c 54be c19f 4e3e 5cd1 2ebe e7d2 563e
000002d0: 3f02 313e 7686 febd 4df3 10bc afef 983e
000002e0: 5fc3 02be 275f 0a3d 58e0 c03d b6f0 eebd
000002f0: f24c c83c ef5f e93c 5b06 3bbe 3bf1 6abe
00000300: f22b 193c 7736 12be 028e 45be 9737 973e
00000310: d301 483d fe72 8bbe d9fc efbd a25a 2dbc
00000320: 4ba8 5a3e 740e 1abe e7ce 4cbe fa28 de3c
00000330: 48a2 9bbe 77df 183e 902f 843d 1871 1fbe
00000340: 8de7 88be ca0f 2ebe b926 b23e 6f33 5c3e
00000350: 965b 6a3e b20d 54be 2013 2abe 7ad4 703e
00000360: 6ec3 6f3d 2805 4f3e a2c2 b8bd 2416 203d
00000370: 75ac 863e fdd8 9ebd 571b 9fbd 2a3f cb3b
00000380: fa67 6a3d 727d 31be f2a2 023d 2091 683e
00000390: d304 f33d 7e7d 8ebe 67f6 b73d ea4e 583e
000003a0: f151 3bbe 6903 a5be d2b6 413e 649d 493b
000003b0: ee66 c4bd 424b 8abe 3d7c 7cbe 63f5 243e
000003c0: ed56 883c 6b0d 883e 9a81 06be 8e15 683e
000003d0: 562e f2bd 22c4 2fbe 9efc 14be c6ce edbc
000003e0: c40c a1be bf7e b63c 0c59 493e 4cce 3ebe
000003f0: f755 47bc b8e6 913e 877d debc a276 8d3e

arith.constant1 f4 [128, 128]
0.17664313 -0.09741275 -0.0776559 -0.17875792 0.18672933 -0.169014 -0.21018808 -0.058693733
0.1225094 -0.0022557578 -0.005791941 -0.003982307 -0.2079666 -0.11308079 0.08295106 -0.1502296
-0.0156186195 0.14980495 0.096938685 -0.21834224 -0.0033887227 -0.028975641 -0.02779595 0.080357336
0.14790986 0.16841732 -0.13241255 -0.011639471 0.12599553 -0.018994909 0.10294425 -0.16485739
-0.13863449 -0.08184192 0.2297334 0.10810876 -0.0087654255 0.14836554 0.038146075 0.033102453
0.021243978 0.06128199 -0.09775304 0.11679203 -0.13680714 0.08155498 0.27315712 0.016622355
-0.04540019 -0.13976283 -0.010045013 0.008241851 0.11625356 0.030811138 0.08450496 -0.060018703
0.011914749 0.004173488 0.095452316 -0.119859815 -0.13129856 0.021570737 -0.093283705 0.20321465
-0.15287368 0.051314726 -0.15395793 0.028466396 -0.019702833 0.06646426 0.09953047 0.013628661
-0.059109498 0.14686263 0.03261448 -0.11510026 -0.1794211 0.11268828 -0.10371267 0.10125847
-0.04962646 -0.094726205 -0.013687047 -0.07806913 -0.081277974 0.013719721 0.14153427 0.16353594
-0.035947185 0.037029278 0.016674394 -0.070101224 0.15535492 -0.1188297 -0.11376107 -0.20774779
0.094313234 -0.0070287455 -0.09807141 -0.0039704046 -0.10230762 -0.099070765 -0.06728608 0.24826969
-0.07415558 -0.10755355 0.24427108 0.31705302 0.03852296 -0.21973723 0.15173993 -0.12139783
0.20637687 -0.19474022 0.07409761 -0.1054139 0.08698136 0.08087389 0.110353045 -0.13159321
0.11972963 -0.046857443 0.027076455 0.15026851 0.018753123 0.11189417 0.031910542 0.085616924
-0.12358446 0.005789566 0.059217576 0.05636307 0.081772335 0.13522641 0.053587012 -0.11397218
0.13388656 -0.112772904 0.04310198 0.09103858 0.05499248 0.07596969 0.14373873 0.061498854
0.080259085 -0.14728568 -0.01361719 0.07521498 -0.073681735 0.10350975 0.12047205 -0.01281068
-0.042057898 0.070427194 -0.084377155 -0.037943427 0.17633148 0.06050321 0.12671055 -0.11796444
-0.026250523 -0.026842812 0.041942447 -0.033544257 0.002578155 0.035342954 -0.07626123 -0.007169242
0.13584813 0.01445967 -0.09059633 0.03395312 -0.053101998 -0.050183628 -0.083860375 -0.20588857
0.042624824 0.14845967 0.113369755 0.10660996 0.018861398 -0.031973317 0.056870136 -0.124731444
0.05143663 -0.09865563 -0.095170856 0.15344103 0.11112127 -0.090689674 0.059297606 0.07349356
0.06861746 -0.07876674 0.121882215 -0.06547845 0.21677849 -0.059042007 0.10694363 -0.04174363
-0.056041174 -0.027645832 0.17451397 -0.11360245 0.1502553 -0.1480267 -0.087673575 0.02411355
0.04929718 -0.16211362 -0.14838742 0.18915974 0.008407296 0.036176465 0.11231483 -0.02033761
-0.05650508 0.14693424 -0.14010514 -0.017997533 0.07951635 -0.17534846 -0.11456297 -0.07078925
0.022731667 0.21554051 0.10553246 -0.15686657 -0.14833178 0.033135667 0.11802756 0.20719741
0.07550751 -0.077656746 -0.008861213 0.025483502 0.05160198 0.008007727 0.021853842 0.13289411
-0.10284705 -0.10521243 -0.18482089 -0.14650358 0.15351453 -0.03274003 0.08823842 -0.13998774
-0.090164594 -0.01632009 -0.028328778 -0.06620554 0.12755105 -0.04174228 0.18062234 0.02707642
00000000: f0e1 343e 5680 c7bd 0e0a 9fbd 510c 37be
00000010: f935 3f3e 0212 2dbe 8b3b 57be d768 70bd
00000020: 35e6 fa3d 56d5 13bb 53ca bdbb 037e 82bb
00000030: 32f5 54be e796 e7bd 3fe2 a93d cad5 19be
00000040: 3de5 7fbc 7866 193e ca87 c63d 1c95 5fbe
00000050: 5515 5ebb 535e edbc 55b4 e3bc 6392 a43d
00000060: af75 173e 9775 2c3e 2897 07be 7bb3 3ebc
00000070: f904 013e 369b 9bbc 6fd4 d23d 60d0 28be
00000080: 33f6 0dbe bd9c a7bd 3b3f 6b3e 2068 dd3d
00000090: dc9c 0fbc 23ed 173e 0f3f 1c3d 7096 073d
000000a0: da07 ae3c d302 7b3d bf32 c8bd a930 ef3d
000000b0: 2c17 0cbe 4c06 a73d 40db 8b3e 9b2b 883c
000000c0: 8df5 39bd fd1d 0fbe d793 24bc d408 073c
000000d0: 5916 ee3d a467 fc3c f010 ad3d 2cd6 75bd
000000e0: 1436 433c c1c1 883b 817c c33d 1079 f5bd
000000f0: 2173 06be 1db5 b03c 870b bfbd 8017 503e
00000100: eb8a 1cbe 642f 523d 26a7 1dbe 5c32 e93c
00000110: d667 a1bc 6a1e 883d a2d6 cb3d bf4a 5f3c
00000120: cd1c 72bd 2863 163e c396 053d afb9 ebbd
00000130: 2aba 37be 1dc9 e63d 4f67 d4bd 9a60 cf3d
00000140: 1d45 4bbd d0ff c1bd a33f 60bc b5e2 9fbd
00000150: 1175 a6bd aec8 603c 5cee 103e f775 273e
00000160: 5b3d 13bd 03ac 173d bd98 883c 3b91 8fbd
00000170: 5c15 1f3e fc5c f3bd 90fb e8bd d6bb 54be
00000180: 4c27 c13d 6451 e6bb aad9 c8bd 2b1a 82bb
00000190: a886 d1bd 9de5 cabd 49cd 89bd 693a 7e3e
000001a0: e1de 97bd 0945 dcbd 3322 7a3e c654 a23e
000001b0: 40ca 1d3d cc02 61be b661 1b3e 6d9f f8bd
000001c0: 7554 533e fb69 47be 7dc0 973d 3ee3 d7bd
000001d0: 4923 b23d 36a1 a53d c700 e23d 5fc0 06be
000001e0: cf34 f53d 97ed 3fbd 71cf dd3c fddf 193e
000001f0: 26a0 993c c528 e53d a1b4 023d ed57 af3d
00000200: d919 fdbd 66b6 bd3b 218e 723d f6dc 663d
00000210: 4178 a73d cb78 0a3e 0e7e 5b3d 3f6a e9bd
00000220: 8f19 093e 7bf5 e6bd b48b 303d 6f72 ba3d
00000230: cb3f 613d ff95 9b3d 3f30 133e 39e6 7b3d
00000240: e05e a43d 0fd2 16be a21a 5fbc 500a 9a3d
00000250: 73e6 96bd ebfc d33d 0dba f63d e3e3 51bc
00000260: e744 2cbd 223c 903d eecd acbd 916a 1bbd
00000270: 3d90 343e 37d2 773d 69c0 013e 5797 f1bd
00000280: 560b d7bc 75e5 dbbc d8cb 2b3d b465 09bd
00000290: 43f6 283b c6c3 103d d92e 9cbd f6eb eabb
000002a0: c61b 0b3e 40e8 6c3c 928a b9bd 6d12 0b3d
000002b0: 7b81 59bd 598d 4dbd fdbe abbd 74d4 52be
000002c0: 5e97 2e3d d005 183e 672e e83d 5356 da3d
000002d0: 3883 9a3c 74f6 02bd a9f0 683d 3373 ffbd
000002e0: 37af 523d f70b cabd f0e8 c2bd a51f 1d3e
000002f0: 8c93 e33d 82bb b9bd 0ce2 723d cb83 963d
00000300: 5087 8c3d 7550 a1bd 629d f93d 9119 86bd
00000310: 2efb 5d3e 08d6 71bd 4305 db3d 5efb 2abd
00000320: 6e8b 65bd 8379 e2bc cab3 323e 67a8 e8bd
00000330: 86dc 193e 5094 17be 348e b3bd c889 c53c
00000340: d7eb 493d 1d01 26be dff2 17be 17b3 413e
00000350: c1be 093c c62d 143d 5105 e63d 0f9b a6bc
00000360: df71 67bd ee75 163e b977 0fbe 906f 93bc
00000370: 78d9 a23d 8c8e 33be fe9f eabd f4f9 90bd
00000380: c337 ba3c a7b6 5c3e 6721 d83d a1a1 20be
00000390: 49e4 17be 44b9 073d 6fb8 f13d 8f2b 543e
000003a0: aea3 9a3d 800a 9fbd 9f2e 11bc c7c2 d03c
000003b0: 995c 533d d732 033c d406 b33c 6515 083e
000003c0: 79a1 d2bd 9d79 d7bd b041 3dbe 0905 16be
000003d0: ea32 1d3e 691a 06bd 58b6 b43d f258 0fbe
000003e0: 37a8 b8bd b6b1 85bc c111 e8bc c596 87bd
000003f0: be9c 023e f4f9 2abd 10f5 383e 5ecf dd3c

arith.constant2 f4 [2]
0.110842094 -0.11084207
00000000: 2e01 e33d 2b01 e3bd

sequential_1/dense_1_2/Add/ReadVariableOp f4 [128]
-0.025974032 -0.05578744 0.086240925 0.17510432 0.08834742 -0.09110676 -0.047626574 0.13679442
-0.10160683 -0.074117936 0.1207756 0.14711775 -0.08436719 -0.08070778 -0.10008902 0.10656736
0.12556012 0.20904301 -0.018519621 0.17863178 -0.035636038 0.15413016 -0.050383445 0.16029422
-0.058337744 -0.05680826 -0.1060267 0.0037606582 0.15170251 0.12465452 0.121562205 -0.089054786
-0.057208262 0.0801676 0.1472606 0.14540245 0.17663124 0.04565202 0.022820463 0.14272614
-0.053827126 0.1581748 0.09740995 -0.10855929 0.100543976 -0.055944994 -0.038133305 -0.057668954
0.13545299 -0.027189128 0.14344999 -0.008454026 -0.08924588 0.16962804 0.14825782 -0.082693055
0.14001311 0.12617326 -0.08625186 0.123615794 -0.048748963 0.16743177 0.14016937 0.09262259
-0.092245325 0.21319309 0.20515509 -0.06256566 0.032218877 0.1870695 0.15967846 0.16488719
-0.07024415 0.101965025 0.1150135 -0.07717702 0.14027606 -0.09131971 -0.077428065 0.085778035
0.1531267 0.07195732 -0.07928559 -0.017642615 -0.06503265 0.107075535 0.113861255 -0.08884081
-0.046753522 -0.053447116 0.13585085 0.13488843 -0.023011968 0.14644293 0.07275807 0.12557296
-0.09844993 0.10015914 -0.046176422 -0.11619295 -0.032718245 0.14172246 0.17263213 -0.025960365
0.14281754 0.13490489 -0.045747265 0.17679162 0.0877938 0.14451818 0.123866886 -0.06257666
0.0006379274 -0.056270257 0.15858687 -0.1445654 0.105354376 0.13707946 0.14736035 0.16348298
0.11815807 -0.026370237 -0.07132872 0.1511144 0.111173294 -0.010777512 -0.050897755 -0.04965365
00000000: 7ec7 d4bc 5f81 64bd 159f b03d 8c4e 333e
00000010: 7eef b43d 2e96 babd 1514 43bd d613 0c3e
00000020: 3e17 d0bd 25cb 97bd 3359 f73d 09a6 163e
00000030: b5c8 acbd 1f4a a5bd 79fb ccbd fd3f da3d
00000040: d592 003e 5f0f 563e 76b6 97bc 40eb 363e
00000050: 18f7 11bd 4cd4 1d3e df5e 4ebd 2b24 243e
00000060: 8ff3 6ebd c7af 68bd 8724 d9bd 6075 763b
00000070: e757 1b3e de4a ff3d 9bf5 f83d 5b62 b6bd
00000080: 3653 6abd e92e a43d 7ccb 163e 61e4 143e
00000090: d2de 343e 9dfd 3a3d fbf1 ba3c cd26 123e
000000a0: d579 5cbd 93f8 213e de7e c73d 5554 debd
000000b0: 00ea cd3d 9426 65bd ab31 1cbd 4836 6cbd
000000c0: 30b4 0a3e bcbb debc 8ee4 123e c182 0abc
000000d0: 8bc6 b6bd f9b2 2d3e e6d0 173e fa5a a9bd
000000e0: 995f 0f3e 9033 013e d1a4 b0bd 472a fd3d
000000f0: feac 47bd 3c73 2b3e 8f88 0f3e eab0 bd3d
00000100: 1eeb bcbd 4a4f 5a3e 2d14 523e 6d22 80bd
00000110: f1f7 033d 268f 3f3e c082 233e 30d8 283e
00000120: 2adc 8fbd 0ad3 d03d 338c eb3d fc0e 9ebd
00000130: 87a4 0f3e d405 bbbd 9b92 9ebd 65ac af3d
00000140: 3fcd 1c3e 5c5e 933d 7c60 a2bd 3f87 90bc
00000150: d72f 85bd 6b4a db3d 1730 e93d 2cf2 b5bd
00000160: 9f80 3fbd 5deb 5abd 7c1c 0b3e 3120 0a3e
00000170: 9883 bcbc 23f5 153e 2f02 953d 3396 003e
00000180: 1ea0 c9bd 3c20 cd3d 7d23 3dbd 92f6 edbd
00000190: 9103 06bd b11f 113e 7ac6 303e d5aa d4bc
000001a0: c33e 123e 8224 0a3e 7c61 3bbd dd08 353e
000001b0: 3ccd b33d 93fc 133e ecad fd3d 3128 80bd
000001c0: 953a 273a a47b 66bd 9964 223e f408 14be
000001d0: 09c4 d73d 8f5e 0c3e a2e5 163e 1568 273e
000001e0: dcfc f13d 6506 d8bc cb14 92bd bcbd 1a3e
000001f0: d3ae e33d 2994 30bc 2a7a 50bd a061 4bbd

sequential_1/dense_1/Add/ReadVariableOp f4 [128]
-0.083367296 -0.08346304 0.06602978 0.053982455 0.07198641 0.06480101 -0.024228588 0.13378005
-0.061167262 -0.12653998 -0.025636781 -0.06869471 -0.04432455 -0.035126504 -0.05169188 -0.018616825
-0.13714516 -0.11571336 -0.08399913 -0.073464 -0.12548581 -0.1392526 -0.10105279 -0.018798253
0.063259356 -0.09457169 0.10609212 0.0069918176 -0.04303261 0.0404471 0.0729009 -0.12889342
-0.015299135 0.13898943 -0.13759795 -0.040301144 -0.049617905 -0.0069682067 0.06114411 -0.111713685
0.037490778 -0.069903836 0.07053332 -0.12144991 0.04589769 -0.027636815 -0.07578659 -0.16703774
0.007061992 -0.15482506 0.1281907 -0.046460908 -0.076953575 0.063308135 0.08982309 0.12893537
0.019367954 0.059550952 -0.02482696 -0.1300536 0.1272614 -0.09163434 -0.12538859 -0.024613973
0.1950498 -0.107126705 0.08447432 -0.057419457 -0.04863513 0.08371637 -0.07584455 -0.09638673
-0.08965935 -0.1702166 0.073199645 -0.12838943 -0.1484003 -0.10021359 -0.026798954 -0.042913713
0.062639296 0.066965744 -0.053039696 -0.15612902 -0.09758464 -0.10811515 0.053668063 0.0048791626
0.08435165 0.007495126 0.24155681 -0.11614415 -0.1448079 0.024662144 -0.101027206 0.13652194
0.18807712 -0.10480601 -0.031639174 -0.092143506 0.026683966 0.033002183 0.035982054 -0.012738419
0.052488875 0.024741882 -0.039468843 -0.07795664 0.06425897 -0.059283126 0.029172517 0.11607833
0.039571207 0.07437268 -0.104451254 0.20774607 -0.10817474 -0.09148421 -0.040815268 0.15735765
-0.016442254 0.11185426 -0.08277557 -0.1272735 0.072565265 -0.056278706 -0.0060383943 0.024774548
00000000: 79bc aabd acee aabd 9f3a 873d b51c 5d3d
00000010: 9c6d 933d 64b6 843d 087b c6bc a3fd 083e
00000020: 868a 7abd b293 01be 3a04 d2bc d0af 8cbd
00000030: a98d 35bd cfe0 0fbd ddba 53bd 5082 98bc
00000040: c86f 0cbe 20fb ecbd bc07 acbd 4b74 96bd
00000050: 5a7f 00be 3c98 0ebe c4f4 cebd cbfe 99bc
00000060: 1f8e 813d cdae c1bd d346 d93d 9e1b e53b
00000070: f642 30bd dcab 253d 114d 953d a3fc 03be
00000080: 39a9 7abc 3f53 0e3e 7ae6 0cbe d012 25bd
00000090: 253c 4bbd 8e55 e4bb 3f72 7a3d 25ca e4bd
000000a0: ee8f 193d be29 8fbd c673 903d bbba f8bd
000000b0: 37ff 3b3d 9a66 e2bc 0036 9bbd f10b 2bbe
000000c0: 4868 e73b 768a 1ebe 6c44 033e cb4d 3ebd
000000d0: d699 9dbd b2a7 813d 2bf5 b73d a207 043e
000000e0: 8ba9 9e3c b3eb 733d e961 cbbc c52c 05be
000000f0: d050 023e c9aa bbbd de65 00be 3ea3 c9bc
00000100: 23bb 473e 3f65 dbbd df00 ad3d aa30 6bbd
00000110: a135 47bd 7d73 ab3d 6354 9bbd 6866 c5bd
00000120: 529f b7bd 434d 2ebe b2e9 953d 8578 03be
00000130: 40f6 17be c83c cdbd 7b89 dbbc 4ac6 2fbd
00000140: 0849 803d 5625 893d 2740 59bd 49e0 1fbe
00000150: 75da c7bd 7a6b ddbd 0bd3 5b3d 62e1 9f3b
00000160: 8fc0 ac3d ad99 f53b ab5a 773e fcdc edbd
00000170: 8648 14be 4408 ca3c 5ae7 cebd 68cc 0b3e
00000180: 4a97 403e 89a4 d6bd 1498 01bd bcb5 bcbd
00000190: 5598 da3c 4c2d 073d eb61 133d cdb4 50bc
000001a0: 93fe 563d 7daf ca3c 15aa 21bd bba7 9fbd
000001b0: 359a 833d ddd2 72bd 34fb ee3c 7aba ed3d
000001c0: 6b15 223d b450 983d 8aea d5bd 63bb 543e
000001d0: b88a ddbd 135c bbbd e92d 27bd 5d22 213e
000001e0: e8b1 86bc d913 e53d 3d86 a9bd fc53 02be
000001f0: 199d 943d 8084 66bd b9dd c5bb fef3 ca3c

sequential_1/dense_1/MatMul f4 [128, 63]
0.21999973 0.09934961 0.22048089 -0.03878783 -0.14968728 0.096766345 0.042312764 -0.058215693
0.011377961 -0.13378552 -0.1408468 -0.100886054 -0.07263809 0.10511476 0.13083492 0.12988266
-0.1316306 -0.07289504 0.18906526 -0.08685233 0.013284549 0.15687338 -0.083325505 0.19716771
0.0841533 -0.17595261 -0.14628749 0.103164196 0.059004158 0.08047621 -0.10722255 0.09299943
-0.18467438 -0.057412203 0.01298743 -0.07371794 -0.017809663 0.070756376 -0.0022353844 0.11823016
0.161174 0.024623323 -0.124850996 0.12640989 0.059046526 0.028644636 -0.13778077 -0.0211071
-0.07929171 0.10968299 -0.094551146 -0.025274374 -0.031850897 0.058319986 -0.09592397 -0.06267272
-0.030385982 -0.12220321 0.124941856 -0.063805036 -0.060281064 -0.038425162 -0.07586085 -0.06184917
-0.120426 -0.16213977 -0.13720791 -0.07784297 -0.16311663 -0.07745695 0.12162746 0.1408599
0.0255007 -0.19107635 0.11613583 -0.05120698 -0.06655204 -0.213898 -0.040531207 0.1366985
0.12184702 0.08179298 0.23989902 0.17369665 0.07446168 0.19064252 -0.090660304 -0.20367849
0.12350453 0.094879866 -0.06741128 -0.029700696 0.024534782 0.012502343 -0.15005656 -0.18411453
0.17062685 0.06650815 0.059443682 0.05685934 0.17491616 0.06958472 0.062106404 0.14804539
0.037579183 0.16691753 0.042903308 -0.026242439 0.03289086 0.03816374 -0.17979322 -0.14048469
-0.013473883 0.044181775 0.13546042 -0.089432925 -0.038749352 0.14030103 -0.11203422 0.123917
-0.14829588 -0.1509082 -0.11977534 0.029835263 -0.20538688 0.09799288 0.008026024 0.024280809
0.127703 0.1020265 -0.109075256 0.05920057 0.02982798 0.09506689 0.09780238 -0.039575975
0.18528344 -0.06900219 -0.042838033 -0.0134543935 -0.10516756 -0.07050577 0.17645235 0.05524122
-0.015487218 -0.103823245 -0.19336481 -0.054632794 -0.014991331 0.0048892987 0.07139122 0.19543004
0.039545767 0.09153104 -0.124254525 0.116857134 0.062396307 -0.062076245 -0.19386093 -0.100109056
-0.19277164 0.20636664 -0.054660756 -0.1626099 0.1818478 -0.06040426 0.08559172 -0.14266247
-0.15537524 0.18707033 -0.04142601 0.15620574 -0.07407131 0.1170068 0.06543161 -0.12234497
0.10705011 -0.16991736 0.090033226 -0.09860424 0.021413794 -0.022352869 0.034798555 -0.051262993
-0.12886785 -0.19639257 0.13100538 -0.05663758 -0.121255435 0.090106115 -0.00053897325 -0.13638154
-0.073914945 0.14003113 -0.07385039 -0.020726096 0.10795937 -0.025401631 0.16916668 0.15039527
-0.08656601 0.18004604 0.17749543 -0.16138464 0.017976282 0.03952312 -0.15068616 0.072305515
0.036801815 -0.14486006 0.049946513 0.067882 -0.029075213 0.03233644 0.23622537 0.08253121
0.11508949 -0.17650482 -0.028528195 0.11160525 -0.0545875 0.10269336 0.041322898 -0.060709782
-0.11447729 -0.089344576 -0.15985322 0.19001777 -0.045437966 0.028365098 0.100390166 -0.015470973
-0.04614957 -0.07816856 -0.12016717 -0.15391432 0.12897888 -0.16100465 0.03655035 -0.0055937935
-0.04752689 0.016690416 0.17192866 0.13956608 0.0804752 0.043868493 -0.0827234 -0.1441532
-0.0519036 -0.03508606 0.0055997004 -0.18587542 -0.08691478 -0.16978279 0.25199062 -0.013692437
00000000: 9c47 613e cf77 cb3d bec5 613e fddf 1ebd
00000010: 9f47 19be 6f2d c63d 2650 2d3d 9473 6ebd
00000020: a16a 3a3c 12ff 08be 253a 10be 599d cebd
00000030: 47c3 94bd 6846 d73d 97f9 053e f6ff 043e
00000040: 2cca 06be ff49 95bd 539a 413e a2df b1bd
00000050: 70a7 593c 6aa3 203e 90a6 aabd 55e6 493e
00000060: 9158 ac3d ec2c 34be 63cc 15be c047 d33d
00000070: 58ae 713d b6d0 a43d 7f97 dbbd 7c76 be3d
00000080: 481b 3dbe 0f29 6bbd 3bc9 543c 6ef9 96bd
00000090: 92e5 91bc b8e8 903d 877f 12bb a722 f23d
000000a0: cc0a 253e dab6 c93c e1b1 ffbd 9871 013e
000000b0: c5da 713d 28a8 ea3c 6716 0dbe cce8 acbc
000000c0: b163 a2bd 7aa1 e03d 08a4 c1bd 340c cfbc
000000d0: 1676 02bd f0e0 6e3d c973 c4bd 8e5a 80bd
000000e0: 06ec f8bc ad45 fabd 84e1 ff3d 37ac 82bd
000000f0: 47e9 76bd b463 1dbd ef5c 9bbd 8e55 7dbd
00000100: e8a1 f6bd f807 26be 3b80 0cbe 236c 9fbd
00000110: 0c08 27be c0a1 9ebd d117 f93d 943d 103e
00000120: d8e6 d03c 85a9 43be 9fd8 ed3d 69be 51bd
00000130: 704c 88bd 1408 5bbe 0d04 26bd b1fa 0b3e
00000140: ee8a f93d 1483 a73d 17a8 753e 89dd 313e
00000150: 5e7f 983d cb37 433e 1cac b9bd 1891 50be
00000160: f1ef fc3d 6050 c23d ed0e 8abd e04e f3bc
00000170: 2bfd c83c a1d6 4c3c 6da8 19be 8588 3cbe
00000180: ceb8 2e3e 6d35 883d 387b 733d 57e5 683d
00000190: 391d 333e 6f82 8e3d 4963 7e3d 3699 173e
000001a0: a1ec 193d 6eec 2a3e 61bb 2f3d 62fa d6bc
000001b0: 91b8 063d 9551 1c3d b71b 38be 38db 0fbe
000001c0: 90c1 5cbc f3f7 343d 23b6 0a3e 9c28 b7bd
000001d0: a4b7 1ebd 13ab 0f3e 3272 e5bd 32c8 fd3d
000001e0: e0da 17be ae87 1abe c64c f5bd 1569 f43c
000001f0: f050 52be 7eb0 c83d 967f 033c 8ce8 c63c
00000200: 93c4 023e 45f3 d03d d962 dfbd 4c7c 723d
00000210: cf59 f43c 6eb2 c23d 9d4c c83d 6b1a 22bd
00000220: f1ba 3d3e 0551 8dbd ef76 2fbd d16f 5cbc
00000230: 1762 d7bd 5465 90bd edaf 343e 9e44 623d
00000240: 1abe 7dbc 48a1 d4bd 6d01 46be a3c6 5fbd
00000250: 339e 75bc 6936 a03b 8f35 923d d01e 483e
00000260: befa 213d a074 bb3d 2879 febd cb52 ef3d
00000270: 4593 7f3d a943 7ebd 7b83 46be fa05 cdbd
00000280: ee65 45be c751 533e f5e3 5fbd 3683 26be
00000290: 4f36 3a3e 756a 77bd b64a af3d 1c16 12be
000002a0: b01a 1fbe 5d8f 3f3e 52ae 29bd 66f4 1f3e
000002b0: b3b2 97bd 43a1 ef3d 0201 863d 0090 fabd
000002c0: 173d db3d d1fe 2dbe 5763 b83d 05f1 c9bd
000002d0: fb6b af3c 5d1d b7bc ee88 0e3d 25f9 51bd
000002e0: eff5 03be 221b 49be 4626 063e cffc 67bd
000002f0: c554 f8bd 8e89 b83d e249 0dba 9aa7 0bbe
00000300: b860 97bd 5264 0f3e e03e 97bd c6c9 a9bc
00000310: cd19 dd3d 1517 d0bc 083a 2d3e 3801 1a3e
00000320: 8549 b1bd fd5d 383e 5dc1 353e 0442 25be
00000330: ff42 933c ffe2 213d 794d 1abe ea14 943d
00000340: 80bd 163d 3256 14be b794 4c3d b805 8b3d
00000350: 242f eebc 3773 043d 10e5 713e 1f06 a93d
00000360: 0ab4 eb3d aebd 34be f6b3 e9bc 4b91 e43d
00000370: 2497 5fbd e550 d23d 3342 293d d2aa 78bd
00000380: 1273 eabd 4afa b6bd 90b0 23be 0594 423e
00000390: 291d 3abd ec5d e83c 5c99 cd3d f779 7dbc
000003a0: 5507 3dbd d716 a0bd 351a f6bd b79b 1dbe
000003b0: 0a13 043e 67de 24be d2b5 153d 244c b7bb
000003c0: 8eab 42bd 57ba 883c 110e 303e 69ea 0e3e
000003d0: 2fd0 a43d 73af 333d e36a a9bd e59c 13be
000003e0: df98 54bd 67b6 0fbd b17d b73b 2056 3ebe
000003f0: 6000 b2bd 8adb 2dbe ea04 813e 3e56 60bc
